…
 'three', 'units3': 256}, 'dropout1': 0.4, 'dropout2': 0.1, 'nb_epochs': 30, 'units1': 768, 'units2': 512}]] 

*** 81 configurations x 1.0 iterations each

1 | Thu Oct  4 00:05:56 2018 | lowest loss so far: inf (run -1)

Hyperspace testing:  {'batch_size': 512, 'choice': {'layers': 'two'}, 'dropout1': 0.5, 'dropout2': 0.1, 'nb_epochs': 30, 'units1': 1024, 'units2': 256}
_________________________________________________________________
Layer (type)                 Output Shape              Param #   
=================================================================
dense_1 (Dense)              (None, 32, 32, 1024)      4096      
_________________________________________________________________
p_re_lu_1 (PReLU)            (None, 32, 32, 1024)      1048576   
_________________________________________________________________
dropout_1 (Dropout)          (None, 32, 32, 1024)      0         
_________________________________________________________________
dense_2 (Dense)              (None, 32, 32, 256)       262400    
_________________________________________________________________
p_re_lu_2 (PReLU)            (None, 32, 32, 256)       262144    
_________________________________________________________________
dropout_2 (Dropout)          (None, 32, 32, 256)       0         
_________________________________________________________________
flatten_1 (Flatten)          (None, 262144)            0         
_________________________________________________________________
dense_3 (Dense)              (None, 10)                2621450   
_________________________________________________________________
activation_1 (Activation)    (None, 10)                0         
=================================================================
Total params: 4,198,666
Trainable params: 4,198,666
Non-trainable params: 0
_________________________________________________________________
xnet is <keras.engine.sequential.Sequential object at 0x7fa0b8d866a0>
vggnet init done 0
Hyperspace testing:  {'batch_size': 256, 'choice': {'dropout3': 0.2, 'layers': 'three', 'units3': 32}, 'dropout1': 0.3, 'dropout2': 0.2, 'nb_epochs': 100, 'units1': 768, 'units2': 512}
_________________________________________________________________
Layer (type)                 Output Shape              Param #   
=================================================================
dense_1 (Dense)              (None, 32, 32, 768)       3072      
_________________________________________________________________
p_re_lu_1 (PReLU)            (None, 32, 32, 768)       786432    
_________________________________________________________________
dropout_1 (Dropout)          (None, 32, 32, 768)       0         
_________________________________________________________________
dense_2 (Dense)              (None, 32, 32, 512)       393728    
_________________________________________________________________
p_re_lu_2 (PReLU)            (None, 32, 32, 512)       524288    
_________________________________________________________________
dropout_2 (Dropout)          (None, 32, 32, 512)       0         
_________________________________________________________________
dense_3 (Dense)              (None, 32, 32, 32)        16416     
_________________________________________________________________
p_re_lu_3 (PReLU)            (None, 32, 32, 32)        32768     
_________________________________________________________________
dropout_3 (Dropout)          (None, 32, 32, 32)        0         
_________________________________________________________________
flatten_1 (Flatten)          (None, 32768)             0         
_________________________________________________________________
dense_4 (Dense)              (None, 10)                327690    
_________________________________________________________________
activation_1 (Activation)    (None, 10)                0         
=================================================================
Total params: 2,084,394
Trainable params: 2,084,394
Non-trainable params: 0
_________________________________________________________________
xnet is <keras.engine.sequential.Sequential object at 0x7fa0b8d86710>
vggnet init done 1
Hyperspace testing:  {'batch_size': 256, 'choice': {'layers': 'two'}, 'dropout1': 0.5, 'dropout2': 0.3, 'nb_epochs': 30, 'units1': 512, 'units2': 512}
_________________________________________________________________
Layer (type)                 Output Shape              Param #   
=================================================================
dense_1 (Dense)              (None, 32, 32, 512)       2048      
_________________________________________________________________
p_re_lu_1 (PReLU)            (None, 32, 32, 512)       524288    
_________________________________________________________________
dropout_1 (Dropout)          (None, 32, 32, 512)       0         
_________________________________________________________________
dense_2 (Dense)              (None, 32, 32, 512)       262656    
_________________________________________________________________
p_re_lu_2 (PReLU)            (None, 32, 32, 512)       524288    
_________________________________________________________________
dropout_2 (Dropout)          (None, 32, 32, 512)       0         
_________________________________________________________________
flatten_1 (Flatten)          (None, 524288)            0         
_________________________________________________________________
dense_3 (Dense)              (None, 10)                5242890   
_________________________________________________________________
activation_1 (Activation)    (None, 10)                0         
=================================================================
Total params: 6,556,170
Trainable params: 6,556,170
Non-trainable params: 0
_________________________________________________________________
xnet is <keras.engine.sequential.Sequential object at 0x7fa0b8d86780>
vggnet init done 2
