…
opout', 'rate': 0.32959638225049154}, 'layer_6_size': 42, 'layer_7_activation': 'tanh', 'layer_7_extras': {'name': None}, 'layer_7_size': 85, 'layer_8_activation': 'sigmoid', 'layer_8_extras': {'name': 'batchnorm'}, 'layer_8_size': 53, 'layer_9_activation': 'sigmoid', 'layer_9_extras': {'name': 'batchnorm'}, 'layer_9_size': 36, 'units1': 512, 'units2': 32, 'units3': 64}
_________________________________________________________________
Layer (type)                 Output Shape              Param #   
=================================================================
conv2d_1 (Conv2D)            (None, 30, 30, 512)       14336     
_________________________________________________________________
conv2d_2 (Conv2D)            (None, 28, 28, 512)       2359808   
_________________________________________________________________
max_pooling2d_1 (MaxPooling2 (None, 14, 14, 512)       0         
_________________________________________________________________
dropout_1 (Dropout)          (None, 14, 14, 512)       0         
_________________________________________________________________
conv2d_3 (Conv2D)            (None, 12, 12, 32)        147488    
_________________________________________________________________
max_pooling2d_2 (MaxPooling2 (None, 6, 6, 32)          0         
_________________________________________________________________
conv2d_4 (Conv2D)            (None, 4, 4, 32)          9248      
_________________________________________________________________
max_pooling2d_3 (MaxPooling2 (None, 2, 2, 32)          0         
_________________________________________________________________
dropout_2 (Dropout)          (None, 2, 2, 32)          0         
_________________________________________________________________
flatten_1 (Flatten)          (None, 128)               0         
_________________________________________________________________
dense_1 (Dense)              (None, 64)                8256      
_________________________________________________________________
dropout_3 (Dropout)          (None, 64)                0         
_________________________________________________________________
dense_2 (Dense)              (None, 10)                650       
=================================================================
Total params: 2,539,786
Trainable params: 2,539,786
Non-trainable params: 0
_________________________________________________________________
xnet is <keras.engine.sequential.Sequential object at 0x7fd14013a6d8>
vggnet init done 2
_________________________________________________________________
Layer (type)                 Output Shape              Param #   
=================================================================
conv2d_1 (Conv2D)            (None, 30, 30, 32)        896       
_________________________________________________________________
conv2d_2 (Conv2D)            (None, 28, 28, 32)        9248      
_________________________________________________________________
max_pooling2d_1 (MaxPooling2 (None, 14, 14, 32)        0         
_________________________________________________________________
dropout_1 (Dropout)          (None, 14, 14, 32)        0         
_________________________________________________________________
conv2d_3 (Conv2D)            (None, 12, 12, 128)       36992     
_________________________________________________________________
max_pooling2d_2 (MaxPooling2 (None, 6, 6, 128)         0         
_________________________________________________________________
conv2d_4 (Conv2D)            (None, 4, 4, 128)         147584    
_________________________________________________________________
max_pooling2d_3 (MaxPooling2 (None, 2, 2, 128)         0         
_________________________________________________________________
dropout_2 (Dropout)          (None, 2, 2, 128)         0         
_________________________________________________________________
flatten_1 (Flatten)          (None, 512)               0         
_________________________________________________________________
dense_1 (Dense)              (None, 32)                16416     
_________________________________________________________________
dropout_3 (Dropout)          (None, 32)                0         
_________________________________________________________________
dense_2 (Dense)              (None, 10)                330       
=================================================================
Total params: 211,466
Trainable params: 211,466
Non-trainable params: 0
_________________________________________________________________
xnet is <keras.engine.sequential.Sequential object at 0x7fd14013aa20>
vggnet init done 0
_________________________________________________________________
Layer (type)                 Output Shape              Param #   
=================================================================
conv2d_1 (Conv2D)            (None, 30, 30, 128)       3584      
_________________________________________________________________
conv2d_2 (Conv2D)            (None, 28, 28, 128)       147584    
_________________________________________________________________
max_pooling2d_1 (MaxPooling2 (None, 14, 14, 128)       0         
_________________________________________________________________
dropout_1 (Dropout)          (None, 14, 14, 128)       0         
_________________________________________________________________
conv2d_3 (Conv2D)            (None, 12, 12, 32)        36896     
_________________________________________________________________
max_pooling2d_2 (MaxPooling2 (None, 6, 6, 32)          0         
_________________________________________________________________
conv2d_4 (Conv2D)            (None, 4, 4, 32)          9248      
_________________________________________________________________
max_pooling2d_3 (MaxPooling2 (None, 2, 2, 32)          0         
_________________________________________________________________
dropout_2 (Dropout)          (None, 2, 2, 32)          0         
_________________________________________________________________
flatten_1 (Flatten)          (None, 128)               0         
_________________________________________________________________
dense_1 (Dense)              (None, 32)                4128      
_________________________________________________________________
dropout_3 (Dropout)          (None, 32)                0         
_________________________________________________________________
dense_2 (Dense)              (None, 10)                330       
=================================================================
Total params: 201,770
Trainable params: 201,770
Non-trainable params: 0
_________________________________________________________________
xnet is <keras.engine.sequential.Sequential object at 0x7fd14013aa90>
vggnet init done 1
Train on 50000 samples, validate on 10000 samples
Epoch 1/1
Train on 50000 samples, validate on 10000 samples
…
': 'batchnorm'}, 'layer_6_size': 40, 'layer_7_activation': 'relu', 'layer_7_extras': {'name': None}, 'layer_7_size': 41, 'layer_8_activation': 'relu', 'layer_8_extras': {'name': 'batchnorm'}, 'layer_8_size': 90, 'layer_9_activation': 'relu', 'layer_9_extras': {'name': 'dropout', 'rate': 0.15394125037523346}, 'layer_9_size': 9, 'units1': 64, 'units2': 128, 'units3': 128}
_________________________________________________________________
Layer (type)                 Output Shape              Param #   
=================================================================
conv2d_5 (Conv2D)            (None, 30, 30, 64)        1792      
_________________________________________________________________
conv2d_6 (Conv2D)            (None, 28, 28, 64)        36928     
_________________________________________________________________
max_pooling2d_4 (MaxPooling2 (None, 14, 14, 64)        0         
_________________________________________________________________
dropout_4 (Dropout)          (None, 14, 14, 64)        0         
_________________________________________________________________
conv2d_7 (Conv2D)            (None, 12, 12, 128)       73856     
_________________________________________________________________
max_pooling2d_5 (MaxPooling2 (None, 6, 6, 128)         0         
_________________________________________________________________
conv2d_8 (Conv2D)            (None, 4, 4, 128)         147584    
_________________________________________________________________
max_pooling2d_6 (MaxPooling2 (None, 2, 2, 128)         0         
_________________________________________________________________
dropout_5 (Dropout)          (None, 2, 2, 128)         0         
_________________________________________________________________
flatten_2 (Flatten)          (None, 512)               0         
_________________________________________________________________
dense_3 (Dense)              (None, 128)               65664     
_________________________________________________________________
dropout_6 (Dropout)          (None, 128)               0         
_________________________________________________________________
dense_4 (Dense)              (None, 10)                1290      
=================================================================
Total params: 327,114
Trainable params: 327,114
Non-trainable params: 0
_________________________________________________________________
xnet is <keras.engine.sequential.Sequential object at 0x7fd13728aef0>
vggnet init done 0
current rungPool is [[[80, 1, 0.17978414340019225, '0', 0, [[1539077212.7747688, 1539077333.487782, 
…
': 'sigmoid', 'layer_6_extras': {'name': 'batchnorm'}, 'layer_6_size': 8, 'layer_7_activation': 'relu', 'layer_7_extras': {'name': None}, 'layer_7_size': 46, 'layer_8_activation': 'tanh', 'layer_8_extras': {'name': None}, 'layer_8_size': 65, 'layer_9_activation': 'sigmoid', 'layer_9_extras': {'name': None}, 'layer_9_size': 45, 'units1': 256, 'units2': 64, 'units3': 128}
_________________________________________________________________
Layer (type)                 Output Shape              Param #   
=================================================================
conv2d_5 (Conv2D)            (None, 30, 30, 256)       7168      
_________________________________________________________________
conv2d_6 (Conv2D)            (None, 28, 28, 256)       590080    
_________________________________________________________________
max_pooling2d_4 (MaxPooling2 (None, 14, 14, 256)       0         
_________________________________________________________________
dropout_4 (Dropout)          (None, 14, 14, 256)       0         
_________________________________________________________________
conv2d_7 (Conv2D)            (None, 12, 12, 64)        147520    
_________________________________________________________________
max_pooling2d_5 (MaxPooling2 (None, 6, 6, 64)          0         
_________________________________________________________________
conv2d_8 (Conv2D)            (None, 4, 4, 64)          36928     
_________________________________________________________________
max_pooling2d_6 (MaxPooling2 (None, 2, 2, 64)          0         
_________________________________________________________________
dropout_5 (Dropout)          (None, 2, 2, 64)          0         
_________________________________________________________________
flatten_2 (Flatten)          (None, 256)               0         
_________________________________________________________________
dense_3 (Dense)              (None, 128)               32896     
_________________________________________________________________
dropout_6 (Dropout)          (None, 128)               0         
_________________________________________________________________
dense_4 (Dense)              (None, 10)                1290      
=================================================================
Total params: 815,882
Trainable params: 815,882
Non-trainable params: 0
_________________________________________________________________
xnet is <keras.engine.sequential.Sequential object at 0x7fcaec2e0128>
vggnet init done 1
current rungPool is [[[80, 1, 0.17978414340019225, '0', 0, [[1539077212.7747688, 1539077333.487782, 
…
ayer_7_activation': 'sigmoid', 'layer_7_extras': {'name': 'dropout', 'rate': 0.224815950948676}, 'layer_7_size': 93, 'layer_8_activation': 'relu', 'layer_8_extras': {'name': 'batchnorm'}, 'layer_8_size': 25, 'layer_9_activation': 'sigmoid', 'layer_9_extras': {'name': 'dropout', 'rate': 0.46606197828320517}, 'layer_9_size': 20, 'units1': 512, 'units2': 32, 'units3': 128}
_________________________________________________________________
Layer (type)                 Output Shape              Param #   
=================================================================
conv2d_5 (Conv2D)            (None, 30, 30, 512)       14336     
_________________________________________________________________
conv2d_6 (Conv2D)            (None, 28, 28, 512)       2359808   
_________________________________________________________________
max_pooling2d_4 (MaxPooling2 (None, 14, 14, 512)       0         
_________________________________________________________________
dropout_4 (Dropout)          (None, 14, 14, 512)       0         
_________________________________________________________________
conv2d_7 (Conv2D)            (None, 12, 12, 32)        147488    
_________________________________________________________________
max_pooling2d_5 (MaxPooling2 (None, 6, 6, 32)          0         
_________________________________________________________________
conv2d_8 (Conv2D)            (None, 4, 4, 32)          9248      
_________________________________________________________________
max_pooling2d_6 (MaxPooling2 (None, 2, 2, 32)          0         
_________________________________________________________________
dropout_5 (Dropout)          (None, 2, 2, 32)          0         
_________________________________________________________________
flatten_2 (Flatten)          (None, 128)               0         
_________________________________________________________________
dense_3 (Dense)              (None, 128)               16512     
_________________________________________________________________
dropout_6 (Dropout)          (None, 128)               0         
_________________________________________________________________
dense_4 (Dense)              (None, 10)                1290      
=================================================================
Total params: 2,548,682
Trainable params: 2,548,682
Non-trainable params: 0
_________________________________________________________________
xnet is <keras.engine.sequential.Sequential object at 0x7fd14013aa58>
vggnet init done 2
Train on 50000 samples, validate on 10000 samples
Epoch 1/1
Train on 50000 samples, validate on 10000 samples
…
